app/src/main/assets/alphabets/alphabets_model.tflite (tflite, 849840 bytes, 54 tensors)

sequential_4/sequential_3/dense_Dense1/MatMul;StatefulPartitionedCall/sequential_4/sequential_3/dense_Dense1/MatMul i1 [100, 1280] scale=0.0025836315 zero_point=0
-0.007750895 0.010334526 -0.038754474 -0.03617084 0.0 -0.010334526 0.0129181575 -0.03617084
-0.007750895 -0.049089 -0.043921735 -0.005167263 0.01550179 -0.025836315 -0.059423525 0.028419947
-0.023252685 -0.025836315 0.010334526 0.010334526 0.028419947 -0.01808542 0.01808542 -0.028419947
0.005167263 0.007750895 -0.01550179 0.03358721 0.007750895 -0.043921735 0.0129181575 -0.03617084
-0.03358721 0.01550179 -0.05167263 0.023252685 -0.05167263 0.01808542 -0.056839895 -0.005167263
0.01550179 -0.020669052 0.01550179 -0.04650537 -0.028419947 -0.0025836315 -0.007750895 0.005167263
0.0 -0.010334526 0.0025836315 -0.041338105 0.0129181575 0.01550179 -0.0129181575 -0.03100358
-0.005167263 -0.03100358 0.0129181575 0.01808542 -0.007750895 0.03100358 0.04650537 -0.0025836315
-0.025836315 -0.005167263 -0.007750895 0.0 -0.01808542 -0.054256264 -0.038754474 0.005167263
0.03358721 -0.038754474 -0.023252685 0.010334526 -0.007750895 0.010334526 -0.028419947 0.01550179
-0.020669052 -0.010334526 -0.03100358 0.0129181575 0.007750895 -0.023252685 0.007750895 -0.020669052
-0.007750895 0.03617084 0.0129181575 0.0129181575 -0.007750895 0.020669052 -0.01808542 0.025836315
0.010334526 0.041338105 0.007750895 -0.04650537 -0.007750895 -0.0129181575 0.0025836315 -0.010334526
-0.01550179 -0.0025836315 -0.04650537 -0.020669052 0.028419947 -0.01550179 -0.007750895 -0.03358721
0.005167263 -0.023252685 -0.007750895 -0.010334526 0.0025836315 0.049089 -0.03358721 0.043921735
0.0 0.0025836315 -0.005167263 -0.028419947 0.007750895 0.023252685 -0.025836315 0.01550179
0.0025836315 -0.025836315 0.025836315 0.010334526 -0.023252685 -0.007750895 -0.03617084 0.0
0.025836315 -0.025836315 -0.043921735 0.0 -0.05167263 -0.028419947 -0.03358721 -0.038754474
0.007750895 0.04650537 0.01808542 -0.038754474 -0.023252685 0.043921735 -0.056839895 -0.0129181575
0.010334526 0.028419947 0.005167263 -0.007750895 0.0025836315 -0.028419947 -0.038754474 -0.041338105
-0.01808542 0.010334526 0.0129181575 -0.041338105 0.041338105 0.020669052 -0.020669052 -0.023252685
-0.023252685 -0.04650537 0.007750895 -0.041338105 -0.043921735 -0.043921735 0.0025836315 -0.01808542
0.005167263 -0.03100358 -0.05167263 0.0 -0.005167263 -0.03100358 -0.023252685 0.005167263
-0.01808542 0.041338105 0.0129181575 0.007750895 0.0025836315 -0.03617084 -0.041338105 0.0
-0.007750895 -0.028419947 -0.01550179 -0.01808542 0.0025836315 0.0129181575 -0.059423525 0.01550179
0.043921735 0.0 -0.010334526 0.01550179 0.005167263 -0.01808542 -0.023252685 -0.023252685
0.005167263 0.005167263 -0.025836315 -0.023252685 0.020669052 0.043921735 0.03100358 -0.0129181575
-0.049089 -0.010334526 -0.01808542 0.005167263 -0.005167263 -0.007750895 0.005167263 0.028419947
-0.010334526 -0.0025836315 0.010334526 -0.03100358 0.020669052 -0.0129181575 -0.010334526 -0.059423525
0.03358721 -0.005167263 0.0 -0.0129181575 0.0129181575 0.007750895 0.01808542 0.0025836315
0.0025836315 0.0 -0.01808542 -0.03358721 -0.03358721 0.020669052 0.041338105 -0.056839895
-0.025836315 0.01808542 0.0 -0.01808542 0.010334526 -0.041338105 -0.005167263 -0.023252685
00000000: fd04 f1f2 00fc 05f2 fded effe 06f6 e90b
00000010: f7f6 0404 0bf9 07f5 0203 fa0d 03ef 05f2
00000020: f306 ec09 ec07 eafe 06f8 06ee f5ff fd02
00000030: 00fc 01f0 0506 fbf4 fef4 0507 fd0c 12ff
00000040: f6fe fd00 f9eb f102 0df1 f704 fd04 f506
00000050: f8fc f405 03f7 03f8 fd0e 0505 fd08 f90a
00000060: 0410 03ee fdfb 01fc faff eef8 0bfa fdf3
00000070: 02f7 fdfc 0113 f311 0001 fef5 0309 f606
00000080: 01f6 0a04 f7fd f200 0af6 ef00 ecf5 f3f1
00000090: 0312 07f1 f711 eafb 040b 02fd 01f5 f1f0
000000a0: f904 05f0 1008 f8f7 f7ee 03f0 efef 01f9
000000b0: 02f4 ec00 fef4 f702 f910 0503 01f2 f000
000000c0: fdf5 faf9 0105 e906 1100 fc06 02f9 f7f7
000000d0: 0202 f6f7 0811 0cfb edfc f902 fefd 020b
000000e0: fcff 04f4 08fb fce9 0dfe 00fb 0503 0701
000000f0: 0100 f9f3 f308 10ea f607 00f9 04f0 fef7

sequential_4/sequential_3/dense_Dense2/MatMul;StatefulPartitionedCall/sequential_4/sequential_3/dense_Dense2/MatMul i1 [4, 100] scale=0.0035145788 zero_point=0
-0.014058315 0.21790388 0.03514579 0.1159811 -0.14058316 0.30928293 0.045689523 0.010543737
0.07380615 -0.042174947 0.014058315 0.05623326 0.16167063 -0.21087472 -0.049204104 -0.06326242
-0.25304967 0.045689523 0.10192279 -0.021087473 -0.07380615 0.06326242 -0.0070291576 -0.15464146
-0.010543737 0.18978725 0.10895194 -0.21790388 -0.06326242 -0.06326242 -0.20384558 0.11949568
-0.22844762 -0.017572895 -0.1651852 0.05271868 -0.010543737 -0.10543736 -0.08434989 -0.27062258
-0.042174947 -0.28819546 0.23899136 -0.14058316 0.07029158 0.045689523 0.14409773 -0.17221436
-0.07380615 0.049204104 0.18627268 0.049204104 0.17572895 -0.28819546 -0.10192279 -0.038660366
0.1651852 0.1827581 -0.17924352 0.15815605 0.014058315 0.17924352 0.09137905 -0.09840821
-0.34442872 0.042174947 0.05271868 0.07380615 0.066777 -0.038660366 0.1827581 0.21790388
-0.06326242 0.038660366 0.133554 0.1651852 -0.08083531 0.28468087 -0.32685584 -0.23547678
-0.31982666 0.049204104 0.2319622 0.05623326 -0.2319622 0.24250594 -0.017572895 -0.21438931
-0.26007882 -0.24250594 -0.05974784 -0.1651852 -0.09137905 0.13003941 0.07380615 0.038660366
0.10543736 -0.21087472 0.024602052 0.22141847 0.05974784 -0.123010255 -0.1651852 -0.0035145788
0.21087472 -0.20384558 0.0035145788 0.11246652 -0.17572895 0.14409773 0.21087472 -0.1159811
-0.08083531 0.010543737 -0.21087472 0.12652484 0.28116632 -0.11246652 0.133554 -0.2987392
-0.28819546 0.14409773 0.0070291576 -0.27413714 0.07732073 0.049204104 -0.1159811 0.16869979
0.28468087 0.11949568 -0.045689523 0.0070291576 0.0 0.20736015 0.038660366 0.25656426
0.08434989 0.27062258 0.0070291576 0.10895194 0.15112689 0.010543737 0.05974784 -0.28468087
-0.14058316 0.0 -0.045689523 0.22493304 0.10895194 0.09137905 -0.017572895 -0.12652484
0.13003941 -0.021087473 0.18627268 0.10543736 -0.25304967 0.010543737 0.12652484 -0.13706857
0.066777 -0.017572895 0.05974784 -0.17221436 0.038660366 -0.049204104 -0.18978725 -0.15815605
0.07380615 0.05974784 0.133554 0.017572895 -0.133554 0.09137905 -0.1827581 -0.19330183
-0.15112689 -0.2987392 -0.05271868 0.20033099 -0.267108 0.05271868 -0.15112689 0.10192279
0.02811663 -0.15815605 0.1651852 0.29171005 -0.05271868 -0.05271868 -0.17924352 0.28116632
-0.07380615 -0.1651852 -0.10543736 0.14409773 0.133554 0.2319622 -0.010543737 -0.28819546
0.02811663 0.11246652 0.13003941 -0.09489363 0.20033099 -0.10895194 0.03163121 0.08083531
-0.24250594 0.0 -0.021087473 0.06326242 0.23899136 -0.021087473 -0.02811663 -0.0070291576
0.05271868 -0.1159811 -0.13003941 0.14409773 -0.014058315 -0.17221436 0.08786447 0.08434989
-0.28819546 -0.25304967 -0.32334125 -0.03163121 -0.20033099 -0.02811663 -0.18627268 -0.123010255
0.07732073 -0.19681641 -0.10895194 0.014058315 -0.10895194 -0.03163121 0.14058316 0.09137905
-0.133554 0.123010255 -0.30928293 0.23899136 -0.23899136 0.11949568 -0.02811663 0.15464146
0.05271868 0.17572895 0.10543736 -0.2635934 -0.045689523 0.09137905 0.09840821 -0.09840821
00000000: fc3e 0a21 d858 0d03 15f4 0410 2ec4 f2ee
00000010: b80d 1dfa eb12 fed4 fd36 1fc2 eeee c622
00000020: bffb d10f fde2 e8b3 f4ae 44d8 140d 29cf
00000030: eb0e 350e 32ae e3f5 2f34 cd2d 0433 1ae4
00000040: 9e0c 0f15 13f5 343e ee0b 262f e951 a3bd
00000050: a50e 4210 be45 fbc3 b6bb efd1 e625 150b
00000060: 1ec4 073f 11dd d1ff 3cc6 0120 ce29 3cdf
00000070: e903 c424 50e0 26ab ae29 02b2 160e df30
00000080: 5122 f302 003b 0b49 184d 021f 2b03 11af
00000090: d800 f340 1f1a fbdc 25fa 351e b803 24d9
000000a0: 13fb 11cf 0bf2 cad3 1511 2605 da1a ccc9
000000b0: d5ab f139 b40f d51d 08d3 2f53 f1f1 cd50
000000c0: ebd1 e229 2642 fdae 0820 25e5 39e1 0917
000000d0: bb00 fa12 44fa f8fe 0fdf db29 fccf 1918
000000e0: aeb8 a4f7 c7f8 cbdd 16c8 e104 e1f7 281a
000000f0: da23 a844 bc22 f82c 0f32 1eb5 f31a 1ce4

sequential_4/sequential_1/model1/Conv1/Conv2D;StatefulPartitionedCall/sequential_4/sequential_1/model1/Conv1/Conv2D i1 [16, 3, 3, 3]
15 30 9 -65 -127 -38 53 105
23 15 34 10 -66 -120 -34 60
105 23 -1 2 4 -19 -22 -10
18 10 6 -16 3 -42 31 72
45 107 127 86 -6 10 -9 -7
-26 15 36 3 10 2 19 -20
4 17 4 13 16 13 -49 -85
-22 -69 -127 -33 -25 -53 -14 17
53 14 17 61 14 14 30 8
34 56 16 50 84 24 28 22
10 0 0 0 0 0 0 0
0 0 0 0 0 0 0 0
0 0 0 0 0 0 0 0
0 0 0 0 50 111 28 -47
-91 -23 4 8 -2 68 127 31
-54 -96 -24 5 13 0 27 23
12 -17 -18 -5 -3 -3 -1 0
0 0 0 0 0 0 0 0
0 0 0 0 0 0 0 0
0 0 0 0 0 0 0 0
0 0 21 -7 -18 81 -32 -52
72 -19 -56 64 -12 -55 127 -44
-87 62 -15 -45 61 -8 -56 64
-13 -50 -18 13 7 0 0 0
0 0 0 0 0 0 0 0
0 0 0 0 0 0 0 0
0 0 0 0 0 0 0 0
-15 -20 -3 -5 -13 -12 9 -20
5 -64 -103 -44 -66 -127 -42 -6
-26 -11 -42 -46 -8 -31 -24 -5
10 7 4 -64 111 18 -28 103
-55 75 -41 -29 -23 28 8 4
00000000: 0f1e 09bf 81da 3569 170f 220a be88 de3c
00000010: 6917 ff02 04ed eaf6 120a 06f0 03d6 1f48
00000020: 2d6b 7f56 fa0a f7f9 e60f 2403 0a02 13ec
00000030: 0411 040d 100d cfab eabb 81df e7cb f211
00000040: 350e 113d 0e0e 1e08 2238 1032 5418 1c16
00000050: 0a00 0000 0000 0000 0000 0000 0000 0000
00000060: 0000 0000 0000 0000 0000 0000 326f 1cd1
00000070: a5e9 0408 fe44 7f1f caa0 e805 0d00 1b17
00000080: 0cef eefb fdfd ff00 0000 0000 0000 0000
00000090: 0000 0000 0000 0000 0000 0000 0000 0000
000000a0: 0000 15f9 ee51 e0cc 48ed c840 f4c9 7fd4
000000b0: a93e f1d3 3df8 c840 f3ce ee0d 0700 0000
000000c0: 0000 0000 0000 0000 0000 0000 0000 0000
000000d0: 0000 0000 0000 0000 f1ec fdfb f3f4 09ec
000000e0: 05c0 99d4 be81 d6fa e6f5 d6d2 f8e1 e8fb
000000f0: 0a07 04c0 6f12 e467 c94b d7e3 e91c 0804

sequential_4/sequential_1/model1/expanded_conv_project/Conv2D;StatefulPartitionedCall/sequential_4/sequential_1/model1/expanded_conv_project/Conv2D i1 [8, 1, 1, 16]
-12 -4 -18 0 -10 0 -127 0
18 34 22 0 1 0 -25 10
-41 -16 -127 0 9 0 19 0
-5 -10 -1 0 -26 0 6 1
5 6 8 0 55 0 22 0
-6 -18 127 0 4 0 116 -2
-24 8 7 0 56 0 -53 0
-19 35 -96 0 2 0 127 -9
8 0 -14 0 -127 0 1 0
3 -15 -1 0 5 0 51 6
117 0 -57 0 9 0 -4 0
-31 7 -4 0 127 0 1 -7
127 -6 18 0 14 0 -6 0
36 18 -1 0 -115 0 4 8
13 43 24 0 -14 0 -9 0
-127 3 7 0 -25 0 -8 -65
00000000: f4fc ee00 f600 8100 1222 1600 0100 e70a
00000010: d7f0 8100 0900 1300 fbf6 ff00 e600 0601
00000020: 0506 0800 3700 1600 faee 7f00 0400 74fe
00000030: e808 0700 3800 cb00 ed23 a000 0200 7ff7
00000040: 0800 f200 8100 0100 03f1 ff00 0500 3306
00000050: 7500 c700 0900 fc00 e107 fc00 7f00 01f9
00000060: 7ffa 1200 0e00 fa00 2412 ff00 8d00 0408
00000070: 0d2b 1800 f200 f700 8103 0700 e700 f8bf

sequential_4/sequential_1/model1/block_1_expand/Conv2D;StatefulPartitionedCall/sequential_4/sequential_1/model1/block_1_expand/Conv2D i1 [48, 1, 1, 8]
31 -8 -113 -127 0 -15 -25 26
-16 -51 3 9 -31 -127 65 8
-127 25 75 -109 0 -6 -10 -16
3 -35 -48 -70 6 127 125 31
46 6 127 -114 2 -3 -5 22
17 127 -5 -5 8 22 13 -20
10 -11 -8 -18 10 1 6 -127
-127 15 -3 -30 2 0 -3 -19
-11 -60 -27 -43 58 92 127 13
-26 -103 -8 14 7 -127 108 21
13 -7 -72 -127 6 -6 0 24
28 7 -114 -127 -52 -27 -39 30
127 -5 -22 65 2 7 7 40
10 37 15 27 -127 -55 -64 -22
-33 -43 95 105 66 55 127 -4
-39 -7 -10 -29 0 -2 5 -127
34 5 -118 -127 -51 -25 -36 17
21 -103 13 0 -23 102 -127 -12
-71 8 -127 95 -1 7 5 -15
70 4 -49 -42 -31 -120 -127 -73
9 17 -14 -8 127 -58 -60 7
14 9 -19 -16 127 -58 -70 7
-116 22 119 -127 0 -13 -6 -3
-13 -55 -31 -55 77 104 127 31
-12 -4 16 13 -127 49 52 -8
-13 19 9 8 1 -1 -3 127
23 35 -10 -24 5 -18 29 -127
127 -16 4 24 3 3 7 14
-12 1 33 59 -98 -127 -110 -20
60 -37 -106 -127 -30 -41 -30 -125
127 -28 98 -88 0 -6 3 -95
-2 54 -12 1 2 -120 127 17
00000000: 1ff8 8f81 00f1 e71a f0cd 0309 e181 4108
00000010: 8119 4b93 00fa f6f0 03dd d0ba 067f 7d1f
00000020: 2e06 7f8e 02fd fb16 117f fbfb 0816 0dec
00000030: 0af5 f8ee 0a01 0681 810f fde2 0200 fded
00000040: f5c4 e5d5 3a5c 7f0d e699 f80e 0781 6c15
00000050: 0df9 b881 06fa 0018 1c07 8e81 cce5 d91e
00000060: 7ffb ea41 0207 0728 0a25 0f1b 81c9 c0ea
00000070: dfd5 5f69 4237 7ffc d9f9 f6e3 00fe 0581
00000080: 2205 8a81 cde7 dc11 1599 0d00 e966 81f4
00000090: b908 815f ff07 05f1 4604 cfd6 e188 81b7
000000a0: 0911 f2f8 7fc6 c407 0e09 edf0 7fc6 ba07
000000b0: 8c16 7781 00f3 fafd f3c9 e1c9 4d68 7f1f
000000c0: f4fc 100d 8131 34f8 f313 0908 01ff fd7f
000000d0: 1723 f6e8 05ee 1d81 7ff0 0418 0303 070e
000000e0: f401 213b 9e81 92ec 3cdb 9681 e2d7 e283
000000f0: 7fe4 62a8 00fa 03a1 fe36 f401 0288 7f11

sequential_4/sequential_1/model1/block_1_project/Conv2D;StatefulPartitionedCall/sequential_4/sequential_1/model1/block_1_project/Conv2D i1 [8, 1, 1, 48]
-13 1 41 -5 13 -7 -6 127
2 -2 38 -5 -8 -6 0 110
-2 -3 15 -3 2 -3 -70 3
0 11 1 -113 3 -4 -41 0
-3 -4 -1 -1 -1 1 1 -49
6 1 -5 -1 -1 2 2 37
25 21 2 -127 27 -9 26 -2
54 6 17 -19 -28 36 9 -3
31 34 -31 -27 19 -119 -10 37
22 -11 -23 -3 11 -36 21 7
-30 44 13 38 -70 41 -22 -9
-1 9 14 2 27 7 66 5
14 78 28 111 73 0 4 -12
53 -58 -16 13 40 -12 -41 5
-47 78 -70 55 110 -42 -17 1
127 12 -62 -18 78 75 63 -22
58 32 -2 0 11 122 -60 -15
10 78 -20 50 68 44 -40 20
16 53 -33 27 -114 -9 14 7
34 31 1 13 4 14 -19 0
-28 61 127 17 56 -41 29 -5
65 25 -38 10 38 26 -99 52
27 119 53 57 -19 75 -41 47
-30 39 -10 35 54 22 -12 -22
18 0 6 10 14 32 9 28
1 1 -58 24 2 11 -14 -24
-10 0 -9 1 4 2 -6 -6
-1 -22 -6 -26 3 2 0 0
9 0 3 -18 -8 -5 -6 127
-18 4 -24 15 3 1 -12 65
-19 -29 33 9 55 -27 -29 -7
-35 127 -3 20 -6 5 -28 -8
00000000: f301 29fb 0df9 fa7f 02fe 26fb f8fa 006e
00000010: fefd 0ffd 02fd ba03 000b 018f 03fc d700
00000020: fdfc ffff ff01 01cf 0601 fbff ff02 0225
00000030: 1915 0281 1bf7 1afe 3606 11ed e424 09fd
00000040: 1f22 e1e5 1389 f625 16f5 e9fd 0bdc 1507
00000050: e22c 0d26 ba29 eaf7 ff09 0e02 1b07 4205
00000060: 0e4e 1c6f 4900 04f4 35c6 f00d 28f4 d705
00000070: d14e ba37 6ed6 ef01 7f0c c2ee 4e4b 3fea
00000080: 3a20 fe00 0b7a c4f1 0a4e ec32 442c d814
00000090: 1035 df1b 8ef7 0e07 221f 010d 040e ed00
000000a0: e43d 7f11 38d7 1dfb 4119 da0a 261a 9d34
000000b0: 1b77 3539 ed4b d72f e227 f623 3616 f4ea
000000c0: 1200 060a 0e20 091c 0101 c618 020b f2e8
000000d0: f600 f701 0402 fafa ffea fae6 0302 0000
000000e0: 0900 03ee f8fb fa7f ee04 e80f 0301 f441
000000f0: ede3 2109 37e5 e3f9 dd7f fd14 fa05 e4f8

sequential_4/sequential_1/model1/block_2_expand/Conv2D;StatefulPartitionedCall/sequential_4/sequential_1/model1/block_2_expand/Conv2D i1 [48, 1, 1, 8]
-7 103 -18 96 -21 127 -10 29
16 76 32 -17 -57 -127 59 27
9 12 -4 6 -68 -4 36 127
5 26 4 -6 -51 -46 77 127
-12 19 -15 1 11 -13 -127 71
-3 74 57 127 -19 112 -3 51
-127 0 -4 9 53 -16 -2 -5
8 -51 52 18 -18 66 1 -127
-6 127 3 99 -12 99 13 58
2 -49 -44 -119 17 -127 4 -41
0 -62 -127 -78 5 78 -5 12
-1 78 113 34 8 -127 -9 -28
8 -75 -14 -53 -47 -4 -63 -127
16 20 -4 -11 -16 5 127 -114
24 85 -28 -3 -24 4 127 -87
29 -61 78 32 -127 13 37 -59
77 33 -51 -14 127 -18 -53 34
15 -127 73 20 -9 7 7 34
14 -24 21 7 -88 -16 127 34
-9 87 41 127 -29 108 1 55
-19 63 14 -4 96 -67 -127 -49
17 -13 21 2 -31 22 127 -47
2 24 -60 -52 44 -25 127 -43
4 127 -106 -18 -3 34 -4 -16
127 -31 5 -8 30 5 -15 26
0 -127 -15 -66 13 -30 13 1
23 -12 5 -20 -127 16 50 -43
-3 -14 6 2 -39 16 -127 30
-9 -21 14 11 127 2 -126 76
23 8 26 -1 -127 -6 -49 7
-127 10 -34 11 21 -13 -18 7
34 -67 -40 -127 -91 -47 -83 -79
00000000: f967 ee60 eb7f f61d 104c 20ef c781 3b1b
00000010: 090c fc06 bcfc 247f 051a 04fa cdd2 4d7f
00000020: f413 f101 0bf3 8147 fd4a 397f ed70 fd33
00000030: 8100 fc09 35f0 fefb 08cd 3412 ee42 0181
00000040: fa7f 0363 f463 0d3a 02cf d489 1181 04d7
00000050: 00c2 81b2 054e fb0c ff4e 7122 0881 f7e4
00000060: 08b5 f2cb d1fc c181 1014 fcf5 f005 7f8e
00000070: 1855 e4fd e804 7fa9 1dc3 4e20 810d 25c5
00000080: 4d21 cdf2 7fee cb22 0f81 4914 f707 0722
00000090: 0ee8 1507 a8f0 7f22 f757 297f e36c 0137
000000a0: ed3f 0efc 60bd 81cf 11f3 1502 e116 7fd1
000000b0: 0218 c4cc 2ce7 7fd5 047f 96ee fd22 fcf0
000000c0: 7fe1 05f8 1e05 f11a 0081 f1be 0de2 0d01
000000d0: 17f4 05ec 8110 32d5 fdf2 0602 d910 811e
000000e0: f7eb 0e0b 7f02 824c 1708 1aff 81fa cf07
000000f0: 810a de0b 15f3 ee07 22bd d881 a5d1 adb1

sequential_4/sequential_1/model1/block_2_project/Conv2D;StatefulPartitionedCall/sequential_4/sequential_1/model1/block_2_project/Conv2D i1 [8, 1, 1, 48]
5 -3 7 -3 -4 4 -4 -1
1 9 -3 -3 -3 11 -14 -14
-9 -1 26 -3 -4 10 -9 -2
2 5 8 -21 -3 18 12 -12
1 0 18 11 1 -11 -127 18
1 -1 -1 -6 37 3 17 -17
-62 -12 -16 5 95 -113 43 -2
-117 -45 11 -43 29 -54 31 -15
-19 123 -17 30 66 9 -8 -106
-13 83 -24 6 16 -35 -16 -41
-2 -35 -22 127 -119 20 -2 10
-17 43 -12 50 -27 -32 -3 -1
13 -6 -37 -17 1 -55 45 54
-38 -9 127 -90 49 -23 11 7
-63 -71 33 99 -109 51 -35 72
71 -104 47 5 10 -23 -61 -10
-44 115 -111 -16 -9 49 -4 5
-51 -25 -68 61 11 66 -44 27
-29 10 -15 -2 9 -77 33 18
-46 -55 43 -19 18 -6 3 -1
-22 -1 13 45 -51 0 -4 -7
6 2 18 7 -15 -18 -31 -3
-21 29 127 -63 -11 1 -13 5
-19 2 -19 37 19 9 0 8
8 1 23 -42 31 -11 2 21
-14 7 8 -9 -18 6 84 45
-25 4 -62 -23 60 -53 22 29
-6 -11 -56 33 -114 -58 -7 82
-17 -24 20 3 -28 7 -34 -94
-19 -33 -19 -7 -127 4 -23 87
-17 11 15 -10 -8 -30 2 6
-16 -46 -17 47 -18 21 12 12
00000000: 05fd 07fd fc04 fcff 0109 fdfd fd0b f2f2
00000010: f7ff 1afd fc0a f7fe 0205 08eb fd12 0cf4
00000020: 0100 120b 01f5 8112 01ff fffa 2503 11ef
00000030: c2f4 f005 5f8f 2bfe 8bd3 0bd5 1dca 1ff1
00000040: ed7b ef1e 4209 f896 f353 e806 10dd f0d7
00000050: fedd ea7f 8914 fe0a ef2b f432 e5e0 fdff
00000060: 0dfa dbef 01c9 2d36 daf7 7fa6 31e9 0b07
00000070: c1b9 2163 9333 dd48 4798 2f05 0ae9 c3f6
00000080: d473 91f0 f731 fc05 cde7 bc3d 0b42 d41b
00000090: e30a f1fe 09b3 2112 d2c9 2bed 12fa 03ff
000000a0: eaff 0d2d cd00 fcf9 0602 1207 f1ee e1fd
000000b0: eb1d 7fc1 f501 f305 ed02 ed25 1309 0008
000000c0: 0801 17d6 1ff5 0215 f207 08f7 ee06 542d
000000d0: e704 c2e9 3ccb 161d faf5 c821 8ec6 f952
000000e0: efe8 1403 e407 dea2 eddf edf9 8104 e957
000000f0: ef0b 0ff6 f8e2 0206 f0d2 ef2f ee15 0c0c

sequential_4/sequential_1/model1/block_3_expand/Conv2D;StatefulPartitionedCall/sequential_4/sequential_1/model1/block_3_expand/Conv2D i1 [48, 1, 1, 8]
3 -33 -72 127 13 -52 6 1
-2 127 -69 -49 21 -47 -1 -41
-127 15 32 -49 111 14 -6 13
-3 13 -21 -31 -25 -51 16 127
127 11 -16 12 -56 -23 0 -9
-30 13 -35 1 95 -39 -127 95
12 -14 -46 -21 -84 22 -127 -99
-27 8 -49 -7 92 -18 -127 82
31 -2 -18 -21 -71 40 127 -117
18 -25 10 18 -105 32 -127 -123
-89 7 10 -17 -127 9 12 -6
127 -11 -15 19 53 6 -6 29
-80 2 -6 -3 -127 -15 13 -32
-10 -127 25 -45 -31 -23 -1 19
-10 127 -76 -2 12 28 -1 -7
35 -3 37 24 -85 56 127 -125
2 -56 127 51 4 -77 -1 -21
25 3 -8 16 127 8 -11 0
-24 17 -38 -16 127 -15 104 43
6 124 14 117 -40 127 12 75
25 -54 0 16 -127 92 10 69
68 8 -4 0 127 -2 -9 33
7 -127 20 -50 12 -60 -3 -11
7 61 24 -22 25 -127 -8 -70
9 5 -11 -9 -1 22 127 23
-38 -20 -26 -23 127 -30 -4 1
-127 -24 5 10 17 15 6 13
-50 -69 35 53 127 97 -6 33
-42 -78 29 68 127 105 -11 48
-37 127 44 115 -50 74 7 16
-54 -13 -6 23 127 28 0 -1
127 36 44 -86 12 19 -12 -3
00000000: 03df b87f 0dcc 0601 fe7f bbcf 15d1 ffd7
00000010: 810f 20cf 6f0e fa0d fd0d ebe1 e7cd 107f
00000020: 7f0b f00c c8e9 00f7 e20d dd01 5fd9 815f
00000030: 0cf2 d2eb ac16 819d e508 cff9 5cee 8152
00000040: 1ffe eeeb b928 7f8b 12e7 0a12 9720 8185
00000050: a707 0aef 8109 0cfa 7ff5 f113 3506 fa1d
00000060: b002 fafd 81f1 0de0 f681 19d3 e1e9 ff13
00000070: f67f b4fe 0c1c fff9 23fd 2518 ab38 7f83
00000080: 02c8 7f33 04b3 ffeb 1903 f810 7f08 f500
00000090: e811 daf0 7ff1 682b 067c 0e75 d87f 0c4b
000000a0: 19ca 0010 815c 0a45 4408 fc00 7ffe f721
000000b0: 0781 14ce 0cc4 fdf5 073d 18ea 1981 f8ba
000000c0: 0905 f5f7 ff16 7f17 daec e6e9 7fe2 fc01
000000d0: 81e8 050a 110f 060d cebb 2335 7f61 fa21
000000e0: d6b2 1d44 7f69 f530 db7f 2c73 ce4a 0710
000000f0: caf3 fa17 7f1c 00ff 7f24 2caa 0c13 f4fd

sequential_4/sequential_1/model1/block_3_project/Conv2D;StatefulPartitionedCall/sequential_4/sequential_1/model1/block_3_project/Conv2D i1 [16, 1, 1, 48]
8 18 10 -37 -2 12 -20 15
-14 1 -8 16 14 39 13 1
33 -19 -41 14 44 -22 127 -18
-22 2 -4 -16 19 18 -20 4
-2 6 124 -19 81 -10 21 47
4 1 -5 -10 15 26 -30 -19
13 -5 7 -35 15 7 1 2
0 -4 18 127 79 -11 4 1
-16 -1 4 5 -16 -45 -21 12
5 1 15 18 -28 -7 -15 -107
9 4 -12 -15 11 106 -15 -20
19 6 4 10 -5 8 2 -23
-18 9 56 30 33 14 101 44
-97 -54 62 12 64 -47 57 58
-30 -42 127 38 -23 34 33 7
-12 37 50 26 -28 -16 -64 20
-77 -33 3 -56 27 -36 -42 31
-50 -38 54 65 -51 -65 -76 -26
-21 127 12 38 -39 12 8 -18
1 0 12 14 38 74 23 8
79 63 -11 42 -87 -26 23 -63
-3 -20 23 58 -84 68 93 11
-37 14 -15 80 10 -6 39 -79
41 57 12 19 43 10 -19 64
15 57 -4 -93 15 5 -1 -1
3 -28 23 -30 5 24 -7 -27
24 37 8 3 111 44 28 -15
12 26 7 -127 109 -13 11 -8
-18 -5 -65 7 2 -4 7 -38
63 12 49 53 -2 -14 -14 -3
-2 -58 -3 7 -21 -4 3 -3
16 -10 13 1 12 16 29 -15
00000000: 0812 0adb fe0c ec0f f201 f810 0e27 0d01
00000010: 21ed d70e 2cea 7fee ea02 fcf0 1312 ec04
00000020: fe06 7ced 51f6 152f 0401 fbf6 0f1a e2ed
00000030: 0dfb 07dd 0f07 0102 00fc 127f 4ff5 0401
00000040: f0ff 0405 f0d3 eb0c 0501 0f12 e4f9 f195
00000050: 0904 f4f1 0b6a f1ec 1306 040a fb08 02e9
00000060: ee09 381e 210e 652c 9fca 3e0c 40d1 393a
00000070: e2d6 7f26 e922 2107 f425 321a e4f0 c014
00000080: b3df 03c8 1bdc d61f ceda 3641 cdbf b4e6
00000090: eb7f 0c26 d90c 08ee 0100 0c0e 264a 1708
000000a0: 4f3f f52a a9e6 17c1 fdec 173a ac44 5d0b
000000b0: db0e f150 0afa 27b1 2939 0c13 2b0a ed40
000000c0: 0f39 fca3 0f05 ffff 03e4 17e2 0518 f9e5
000000d0: 1825 0803 6f2c 1cf1 0c1a 0781 6df3 0bf8
000000e0: eefb bf07 02fc 07da 3f0c 3135 fef2 f2fd
000000f0: fec6 fd07 ebfc 03fd 10f6 0d01 0c10 1df1

sequential_4/sequential_1/model1/block_4_expand/Conv2D;StatefulPartitionedCall/sequential_4/sequential_1/model1/block_4_expand/Conv2D i1 [96, 1, 1, 16]
35 0 109 -7 19 12 -123 -127
55 -27 66 -46 -2 -6 -14 -9
63 1 13 47 -25 -1 4 6
-127 11 23 25 40 43 83 37
-78 32 63 -79 -14 32 -55 -68
127 7 0 -109 -7 -10 83 107
127 -36 -2 8 9 -4 -41 93
35 78 83 -47 -13 46 85 -72
14 28 -40 20 -4 -7 -31 -18
-26 -10 15 127 -24 19 35 34
33 16 -120 -18 -53 62 -62 -127
-59 -17 -93 71 -25 -116 -69 84
127 16 31 -15 11 -75 -12 18
-67 -27 -31 -107 15 13 -75 78
-7 7 -14 -8 -4 -1 4 -22
17 19 -7 -12 25 127 2 -6
127 -28 14 -21 -35 -6 -10 -14
67 41 7 45 -9 -25 26 33
15 12 -94 8 -13 36 -39 -127
-75 25 -102 5 -61 -37 91 22
49 -44 -67 87 4 -94 -38 17
-22 -57 93 69 14 18 11 -127
-3 1 -27 -10 1 5 -5 -35
-14 13 -22 0 127 -23 18 -7
-127 -41 -4 -23 3 -32 -45 16
-38 57 -51 -109 -22 10 -124 -88
-18 -43 9 26 -5 23 0 40
25 13 -18 -87 -22 -25 78 -127
-38 -35 -10 -28 41 -12 4 -9
26 -36 -41 77 -37 25 -127 71
-121 -5 11 2 -1 97 8 19
99 32 -1 -34 3 -12 45 127
00000000: 2300 6df9 130c 8581 37e5 42d2 fefa f2f7
00000010: 3f01 0d2f e7ff 0406 810b 1719 282b 5325
00000020: b220 3fb1 f220 c9bc 7f07 0093 f9f6 536b
00000030: 7fdc fe08 09fc d75d 234e 53d1 f32e 55b8
00000040: 0e1c d814 fcf9 e1ee e6f6 0f7f e813 2322
00000050: 2110 88ee cb3e c281 c5ef a347 e78c bb54
00000060: 7f10 1ff1 0bb5 f412 bde5 e195 0f0d b54e
00000070: f907 f2f8 fcff 04ea 1113 f9f4 197f 02fa
00000080: 7fe4 0eeb ddfa f6f2 4329 072d f7e7 1a21
00000090: 0f0c a208 f324 d981 b519 9a05 c3db 5b16
000000a0: 31d4 bd57 04a2 da11 eac7 5d45 0e12 0b81
000000b0: fd01 e5f6 0105 fbdd f20d ea00 7fe9 12f9
000000c0: 81d7 fce9 03e0 d310 da39 cd93 ea0a 84a8
000000d0: eed5 091a fb17 0028 190d eea9 eae7 4e81
000000e0: dadd f6e4 29f4 04f7 1adc d74d db19 8147
000000f0: 87fb 0b02 ff61 0813 6320 ffde 03f4 2d7f

sequential_4/sequential_1/model1/block_4_project/Conv2D;StatefulPartitionedCall/sequential_4/sequential_1/model1/block_4_project/Conv2D i1 [16, 1, 1, 96]
-51 101 -10 -73 -20 -2 37 -61
-4 6 43 -30 25 -109 -50 46
-5 -76 -10 -122 -57 18 -19 -23
-12 0 26 -5 6 11 36 3
64 16 15 -14 26 54 14 -99
28 -2 -13 -14 45 5 1 20
-13 10 57 33 -7 -62 -15 54
-3 17 3 11 -71 -10 8 -37
13 -17 7 -2 -11 -13 107 -127
-27 -124 -112 14 6 91 16 47
-17 -119 77 -39 -54 32 18 35
-4 -52 -8 -66 -103 28 -59 45
-13 -11 11 30 -20 -60 -10 -15
-2 -31 -4 -105 22 -42 -11 -13
-10 -9 -4 -4 -49 11 -18 12
-12 9 10 -7 -4 3 15 24
2 -14 37 -14 -4 -14 5 11
79 16 -46 57 1 2 -61 69
20 39 -23 100 -127 35 44 -6
-9 33 0 40 -38 7 -13 14
29 5 -29 9 -1 -10 23 -39
-5 -24 -23 -34 -94 -22 1 -4
7 -24 -13 2 -28 9 6 -40
51 -7 55 24 14 2 -22 30
-50 -34 56 10 -76 24 -11 -5
-82 -20 9 -18 -85 -5 -21 22
27 -37 0 -55 38 -17 93 79
-6 0 -27 12 3 80 33 -21
-62 69 -46 -66 25 -68 21 40
47 -51 12 -84 -14 20 -13 35
46 17 -12 82 -1 99 42 -12
27 46 20 -53 58 -22 -32 -11
00000000: cd65 f6b7 ecfe 25c3 fc06 2be2 1993 ce2e
00000010: fbb4 f686 c712 ede9 f400 1afb 060b 2403
00000020: 4010 0ff2 1a36 0e9d 1cfe f3f2 2d05 0114
00000030: f30a 3921 f9c2 f136 fd11 030b b9f6 08db
00000040: 0def 07fe f5f3 6b81 e584 900e 065b 102f
00000050: ef89 4dd9 ca20 1223 fccc f8be 991c c52d
00000060: f3f5 0b1e ecc4 f6f1 fee1 fc97 16d6 f5f3
00000070: f6f7 fcfc cf0b ee0c f409 0af9 fc03 0f18
00000080: 02f2 25f2 fcf2 050b 4f10 d239 0102 c345
00000090: 1427 e964 8123 2cfa f721 0028 da07 f30e
000000a0: 1d05 e309 fff6 17d9 fbe8 e9de a2ea 01fc
000000b0: 07e8 f302 e409 06d8 33f9 3718 0e02 ea1e
000000c0: cede 380a b418 f5fb aeec 09ee abfb eb16
000000d0: 1bdb 00c9 26ef 5d4f fa00 e50c 0350 21eb
000000e0: c245 d2be 19bc 1528 2fcd 0cac f214 f323
000000f0: 2e11 f452 ff63 2af4 1b2e 14cb 3aea e0f5

sequential_4/sequential_1/model1/block_5_expand/Conv2D;StatefulPartitionedCall/sequential_4/sequential_1/model1/block_5_expand/Conv2D i1 [96, 1, 1, 16]
-12 -11 22 -17 34 74 50 -41
127 -13 -42 -24 10 -14 -12 -7
127 -15 -80 72 26 -123 -48 44
-101 -13 114 -110 2 -66 -33 -18
55 -2 20 17 -11 -127 -114 -43
-51 -19 64 -64 8 -13 1 17
17 25 -114 18 -22 1 127 122
-4 18 -38 -28 -6 -10 2 11
-75 65 44 49 47 68 -4 10
112 -17 -127 52 14 -62 57 -77
86 12 -11 46 4 20 25 -12
28 -8 -23 -85 8 4 -30 127
81 -17 26 23 -17 -38 83 -48
-127 -12 7 16 2 17 -57 -26
-5 50 41 -38 10 50 18 59
-127 51 61 71 30 67 70 24
77 20 -96 -13 -13 -127 -1 90
-41 -1 3 -72 -4 -12 2 10
-80 22 18 52 -127 -32 -35 -26
18 -21 -58 53 -5 13 -98 -15
-31 71 -83 -36 -8 0 -26 -61
-36 -77 -40 31 127 -6 -42 1
107 -23 16 -22 24 -59 10 9
127 33 0 -5 27 -28 13 0
5 -56 -39 -95 74 34 18 -27
27 6 52 -27 0 21 -127 -1
-28 -48 -32 -27 7 26 63 17
-11 -3 -27 127 -1 2 1 -97
20 127 -24 10 7 -1 28 -54
-1 4 12 3 -40 12 8 -9
-8 -48 22 -55 -4 -72 -22 -59
102 2 -20 -127 -15 15 -11 -22
00000000: f4f5 16ef 224a 32d7 7ff3 d6e8 0af2 f4f9
00000010: 7ff1 b048 1a85 d02c 9bf3 7292 02be dfee
00000020: 37fe 1411 f581 8ed5 cded 40c0 08f3 0111
00000030: 1119 8e12 ea01 7f7a fc12 dae4 faf6 020b
00000040: b541 2c31 2f44 fc0a 70ef 8134 0ec2 39b3
00000050: 560c f52e 0414 19f4 1cf8 e9ab 0804 e27f
00000060: 51ef 1a17 efda 53d0 81f4 0710 0211 c7e6
00000070: fb32 29da 0a32 123b 8133 3d47 1e43 4618
00000080: 4d14 a0f3 f381 ff5a d7ff 03b8 fcf4 020a
00000090: b016 1234 81e0 dde6 12eb c635 fb0d 9ef1
000000a0: e147 addc f800 e6c3 dcb3 d81f 7ffa d601
000000b0: 6be9 10ea 18c5 0a09 7f21 00fb 1be4 0d00
000000c0: 05c8 d9a1 4a22 12e5 1b06 34e5 0015 81ff
000000d0: e4d0 e0e5 071a 3f11 f5fd e57f ff02 019f
000000e0: 147f e80a 07ff 1cca ff04 0c03 d80c 08f7
000000f0: f8d0 16c9 fcb8 eac5 6602 ec81 f10f f5ea

sequential_4/sequential_1/model1/block_5_project/Conv2D;StatefulPartitionedCall/sequential_4/sequential_1/model1/block_5_project/Conv2D i1 [16, 1, 1, 96]
-1 93 37 -70 -16 -127 -99 2
43 -54 -53 -61 -61 29 26 19
-22 -25 -89 -60 -1 -12 -12 -47
-5 19 -15 -25 5 -3 -30 11
11 -57 -59 57 15 -34 43 -43
-1 24 -6 4 47 14 -1 13
19 -3 -10 102 -4 -21 -19 9
-7 -19 -71 -19 31 -9 4 24
5 -1 -15 -13 -12 49 33 -17
-12 51 16 22 57 60 3 -27
58 -13 27 70 -20 -47 8 12
19 -9 3 -22 44 -34 20 19
-10 3 -7 -22 8 -14 -7 15
2 9 -17 -17 7 11 127 -7
10 0 12 4 18 43 -8 -3
-26 17 10 -8 31 14 6 1
-11 -30 43 -3 2 -14 -23 7
-22 21 -14 1 -10 11 16 -15
-8 5 7 7 -8 0 23 -6
15 -13 -37 26 10 22 6 19
-12 1 -12 4 19 1 -40 -17
11 10 -6 14 -8 -16 4 7
0 -25 -11 -15 -5 -21 0 -2
47 -15 -22 38 -8 -4 -1 18
-1 4 0 102 46 39 -14 107
-90 9 1 75 -22 20 -52 -21
127 41 35 15 26 -95 -28 -13
15 -4 -22 -2 -5 65 -28 -19
-38 -57 55 -29 17 61 -75 54
14 22 -58 -56 19 58 20 -19
56 7 -14 -28 -80 62 -36 -79
19 -10 -77 94 21 74 -31 -43
00000000: ff5d 25ba f081 9d02 2bca cbc3 c31d 1a13
00000010: eae7 a7c4 fff4 f4d1 fb13 f1e7 05fd e20b
00000020: 0bc7 c539 0fde 2bd5 ff18 fa04 2f0e ff0d
00000030: 13fd f666 fceb ed09 f9ed b9ed 1ff7 0418
00000040: 05ff f1f3 f431 21ef f433 1016 393c 03e5
00000050: 3af3 1b46 ecd1 080c 13f7 03ea 2cde 1413
00000060: f603 f9ea 08f2 f90f 0209 efef 070b 7ff9
00000070: 0a00 0c04 122b f8fd e611 0af8 1f0e 0601
00000080: f5e2 2bfd 02f2 e907 ea15 f201 f60b 10f1
00000090: f805 0707 f800 17fa 0ff3 db1a 0a16 0613
000000a0: f401 f404 1301 d8ef 0b0a fa0e f8f0 0407
000000b0: 00e7 f5f1 fbeb 00fe 2ff1 ea26 f8fc ff12
000000c0: ff04 0066 2e27 f26b a609 014b ea14 cceb
000000d0: 7f29 230f 1aa1 e4f3 0ffc eafe fb41 e4ed
000000e0: dac7 37e3 113d b536 0e16 c6c8 133a 14ed
000000f0: 3807 f2e4 b03e dcb1 13f6 b35e 154a e1d5

sequential_4/sequential_1/model1/block_6_expand/Conv2D;StatefulPartitionedCall/sequential_4/sequential_1/model1/block_6_expand/Conv2D i1 [96, 1, 1, 16]
124 -29 26 106 23 2 65 -49
-94 -30 -19 41 -22 -3 -88 -127
-20 71 26 76 -106 -8 -31 52
45 -18 -15 127 1 -109 -105 63
-72 -7 -5 3 12 -118 -34 -6
-69 66 -53 -84 -21 127 103 3
-35 19 10 31 -127 -73 -31 -21
25 -13 -89 -13 -14 78 -40 -37
-57 72 76 11 127 30 10 119
-21 17 90 81 50 40 -98 26
64 19 -7 127 20 -42 -35 7
50 25 -45 118 29 32 61 69
24 127 -6 37 40 -15 16 -12
24 -23 8 -50 -41 -4 27 -22
-30 59 33 34 -8 127 37 -15
-27 22 -22 22 11 48 -2 -10
-78 2 55 -3 1 -14 17 17
83 16 -57 51 14 -127 89 59
-19 -3 -49 26 127 8 -20 -21
10 28 -34 -78 8 22 -68 -20
120 11 -3 48 -22 46 18 -9
69 -9 -12 -127 8 10 -39 83
0 -127 14 23 8 -12 -13 11
-5 38 -31 -8 -13 15 15 15
-39 25 -14 15 5 -4 -33 18
30 13 -26 -99 10 6 9 127
-23 -8 -10 -33 13 -41 -6 -5
54 -104 -17 57 -4 10 -127 30
-127 18 2 4 27 -30 -13 17
-56 13 -1 -13 -5 -3 -13 -7
-9 58 45 -4 19 127 2 8
7 -13 -92 -6 7 -6 -34 25
00000000: 7ce3 1a6a 1702 41cf a2e2 ed29 eafd a881
00000010: ec47 1a4c 96f8 e134 2dee f17f 0193 973f
00000020: b8f9 fb03 0c8a defa bb42 cbac eb7f 6703
00000030: dd13 0a1f 81b7 e1eb 19f3 a7f3 f24e d8db
00000040: c748 4c0b 7f1e 0a77 eb11 5a51 3228 9e1a
00000050: 4013 f97f 14d6 dd07 3219 d376 1d20 3d45
00000060: 187f fa25 28f1 10f4 18e9 08ce d7fc 1bea
00000070: e23b 2122 f87f 25f1 e516 ea16 0b30 fef6
00000080: b202 37fd 01f2 1111 5310 c733 0e81 593b
00000090: edfd cf1a 7f08 eceb 0a1c deb2 0816 bcec
000000a0: 780b fd30 ea2e 12f7 45f7 f481 080a d953
000000b0: 0081 0e17 08f4 f30b fb26 e1f8 f30f 0f0f
000000c0: d919 f20f 05fc df12 1e0d e69d 0a06 097f
000000d0: e9f8 f6df 0dd7 fafb 3698 ef39 fc0a 811e
000000e0: 8112 0204 1be2 f311 c80d fff3 fbfd f3f9
000000f0: f73a 2dfc 137f 0208 07f3 a4fa 07fa de19

sequential_4/sequential_1/model1/block_6_project/Conv2D;StatefulPartitionedCall/sequential_4/sequential_1/model1/block_6_project/Conv2D i1 [24, 1, 1, 96]
26 -6 -5 10 -26 -44 -11 -8
-78 46 -37 6 -52 4 8 -70
-27 -10 30 52 1 -17 14 70
-12 15 -8 -21 -22 14 19 -8
-22 -123 -3 -10 47 -26 127 12
-15 28 -18 -29 -5 -20 18 -28
-11 -5 -42 -32 -53 -14 -60 -3
25 24 11 -19 13 -7 -4 10
35 -19 6 28 84 97 2 57
-4 9 -3 -4 -98 19 -65 -13
-14 0 27 35 -28 -4 -5 18
-1 -30 27 2 -12 51 -4 10
-4 -2 15 16 -34 -24 15 10
-25 -16 15 21 -16 22 -52 -45
7 -31 -11 -83 -13 5 41 -39
11 -38 8 -20 -11 -27 -28 -8
3 18 81 24 -127 16 8 14
-25 -55 -51 -73 -11 -31 28 33
-58 -31 -7 -6 -23 -35 -8 -19
-1 -25 55 -26 -9 53 -103 -28
-42 -16 3 -37 -33 34 -19 -38
-3 -41 13 -48 7 0 -16 -9
-5 0 19 -1 -27 12 17 4
74 -11 -5 -12 -9 -52 -15 19
-49 -6 -5 15 -23 -43 13 20
50 58 -31 -6 28 -8 13 -4
-38 0 -55 113 -16 7 9 16
-5 23 -12 1 3 19 4 -34
-45 -59 -15 -5 29 7 64 -1
127 -55 -19 -14 -30 34 -8 -4
-24 5 -44 3 -40 -5 -3 18
-24 43 -11 -2 19 99 19 31
00000000: 1afa fb0a e6d4 f5f8 b22e db06 cc04 08ba
00000010: e5f6 1e34 01ef 0e46 f40f f8eb ea0e 13f8
00000020: ea85 fdf6 2fe6 7f0c f11c eee3 fbec 12e4
00000030: f5fb d6e0 cbf2 c4fd 1918 0bed 0df9 fc0a
00000040: 23ed 061c 5461 0239 fc09 fdfc 9e13 bff3
00000050: f200 1b23 e4fc fb12 ffe2 1b02 f433 fc0a
00000060: fcfe 0f10 dee8 0f0a e7f0 0f15 f016 ccd3
00000070: 07e1 f5ad f305 29d9 0bda 08ec f5e5 e4f8
00000080: 0312 5118 8110 080e e7c9 cdb7 f5e1 1c21
00000090: c6e1 f9fa e9dd f8ed ffe7 37e6 f735 99e4
000000a0: d6f0 03db df22 edda fdd7 0dd0 0700 f0f7
000000b0: fb00 13ff e50c 1104 4af5 fbf4 f7cc f113
000000c0: cffa fb0f e9d5 0d14 323a e1fa 1cf8 0dfc
000000d0: da00 c971 f007 0910 fb17 f401 0313 04de
000000e0: d3c5 f1fb 1d07 40ff 7fc9 edf2 e222 f8fc
000000f0: e805 d403 d8fb fd12 e82b f5fe 1363 131f

sequential_4/sequential_1/model1/block_7_expand/Conv2D;StatefulPartitionedCall/sequential_4/sequential_1/model1/block_7_expand/Conv2D i1 [144, 1, 1, 24]
-73 -18 -37 -21 35 23 -18 42
58 -49 -1 41 127 7 -56 24
39 36 -40 -1 111 23 -20 -50
-11 68 -8 -51 -63 -66 -20 63
-22 62 32 -3 -60 1 -8 8
-76 -51 12 127 -102 10 31 53
-28 -100 -6 9 62 -86 -28 -15
-89 -20 -39 -4 16 -92 79 -20
47 26 74 -82 -58 -39 127 83
20 -55 5 -69 -106 -59 60 40
9 103 19 12 37 -87 -22 -84
-33 -108 49 102 -89 -98 -127 18
-8 -32 34 14 19 5 40 6
20 -59 16 29 -127 17 39 8
-4 37 -31 91 23 -35 10 34
-58 66 127 -19 55 -23 3 21
30 32 -58 2 38 -100 36 -17
2 41 69 7 23 -16 44 35
-127 -70 -10 76 24 4 90 -48
-66 -60 47 -70 -37 121 -12 23
22 -62 -29 101 -22 60 15 101
-52 -97 -36 -58 -11 -35 25 -38
-18 -2 -2 -86 -50 -91 20 -7
-14 -52 127 14 -33 -37 -23 37
-55 -24 -33 49 1 -47 15 -3
-28 -36 -18 32 127 -22 -7 -18
4 -63 14 53 76 19 11 -30
127 75 30 20 -3 1 15 -64
-13 18 -1 12 -5 -28 -7 -64
-24 -83 28 13 -18 -91 28 25
-17 -88 -8 -29 -26 -57 75 -28
5 -25 -12 -116 -37 -127 13 -19
00000000: b7ee dbeb 2317 ee2a 3acf ff29 7f07 c818
00000010: 2724 d8ff 6f17 ecce f544 f8cd c1be ec3f
00000020: ea3e 20fd c401 f808 b4cd 0c7f 9a0a 1f35
00000030: e49c fa09 3eaa e4f1 a7ec d9fc 10a4 4fec
00000040: 2f1a 4aae c6d9 7f53 14c9 05bb 96c5 3c28
00000050: 0967 130c 25a9 eaac df94 3166 a79e 8112
00000060: f8e0 220e 1305 2806 14c5 101d 8111 2708
00000070: fc25 e15b 17dd 0a22 c642 7fed 37e9 0315
00000080: 1e20 c602 269c 24ef 0229 4507 17f0 2c23
00000090: 81ba f64c 1804 5ad0 bec4 2fba db79 f417
000000a0: 16c2 e365 ea3c 0f65 cc9f dcc6 f5dd 19da
000000b0: eefe feaa cea5 14f9 f2cc 7f0e dfdb e925
000000c0: c9e8 df31 01d1 0ffd e4dc ee20 7fea f9ee
000000d0: 04c1 0e35 4c13 0be2 7f4b 1e14 fd01 0fc0
000000e0: f312 ff0c fbe4 f9c0 e8ad 1c0d eea5 1c19
000000f0: efa8 f8e3 e6c7 4be4 05e7 f48c db81 0ded

sequential_4/sequential_1/model1/block_7_project/Conv2D;StatefulPartitionedCall/sequential_4/sequential_1/model1/block_7_project/Conv2D i1 [24, 1, 1, 144]
-52 52 -24 -20 43 -35 -24 -30
7 53 -1 -3 11 -1 -82 40
17 13 -77 10 -38 21 7 -14
19 -38 8 25 -23 1 -34 -32
-27 7 8 -36 34 0 -12 -63
31 -22 -15 -30 -14 8 27 -7
-29 10 -2 12 6 -24 12 -8
43 -39 -42 -32 -1 12 -14 -24
-15 15 -3 -9 -9 81 -45 -31
-5 -13 66 39 -33 -16 8 -5
-31 -22 114 37 3 25 5 -22
-31 1 -58 -4 6 -29 30 -20
-10 0 -20 41 14 -7 30 -11
-26 45 -4 1 -45 7 19 -15
20 21 32 17 29 -15 -9 127
28 -14 13 4 -22 1 -9 29
0 45 -6 47 26 -20 -70 -1
8 -79 11 1 -62 2 -11 19
-36 36 -93 -37 14 64 -11 -30
25 13 -20 76 12 8 60 39
-51 37 -20 71 -68 -14 -20 61
-11 -127 50 50 55 3 -38 -6
-27 -32 6 9 -6 -44 -9 -57
24 -70 49 -38 20 -54 -20 15
13 9 -10 60 69 37 -37 25
18 -113 85 -3 -12 29 29 42
-7 -45 6 -28 24 -21 91 21
44 -74 69 -66 -45 -4 36 25
-67 -13 11 -29 -8 12 -56 27
49 3 6 -83 10 -45 -39 -48
-14 43 -102 -48 23 15 -56 19
-22 -6 -31 84 30 -55 12 -22
00000000: cc34 e8ec 2bdd e8e2 0735 fffd 0bff ae28
00000010: 110d b30a da15 07f2 13da 0819 e901 dee0
00000020: e507 08dc 2200 f4c1 1fea f1e2 f208 1bf9
00000030: e30a fe0c 06e8 0cf8 2bd9 d6e0 ff0c f2e8
00000040: f10f fdf7 f751 d3e1 fbf3 4227 dff0 08fb
00000050: e1ea 7225 0319 05ea e101 c6fc 06e3 1eec
00000060: f600 ec29 0ef9 1ef5 e62d fc01 d307 13f1
00000070: 1415 2011 1df1 f77f 1cf2 0d04 ea01 f71d
00000080: 002d fa2f 1aec baff 08b1 0b01 c202 f513
00000090: dc24 a3db 0e40 f5e2 190d ec4c 0c08 3c27
000000a0: cd25 ec47 bcf2 ec3d f581 3232 3703 dafa
000000b0: e5e0 0609 fad4 f7c7 18ba 31da 14ca ec0f
000000c0: 0d09 f63c 4525 db19 128f 55fd f41d 1d2a
000000d0: f9d3 06e4 18eb 5b15 2cb6 45be d3fc 2419
000000e0: bdf3 0be3 f80c c81b 3103 06ad 0ad3 d9d0
000000f0: f22b 9ad0 170f c813 eafa e154 1ec9 0cea

sequential_4/sequential_1/model1/block_8_expand/Conv2D;StatefulPartitionedCall/sequential_4/sequential_1/model1/block_8_expand/Conv2D i1 [144, 1, 1, 24]
19 -27 70 -68 4 -3 39 -42
6 -3 15 -127 0 33 -33 -50
15 -42 35 -54 48 34 58 -17
33 -27 11 -68 5 -72 -47 -2
127 60 35 13 -51 -31 50 -32
-52 67 -37 -81 -41 72 -28 -29
9 11 -11 -6 127 -4 45 -25
5 -14 -3 4 -6 -3 -23 6
30 -9 -8 16 -113 22 5 -126
59 -27 -53 -32 -9 -11 -82 -48
51 -60 -76 37 -52 40 -34 29
-54 -14 127 62 55 44 -86 -88
127 27 -50 31 33 18 -3 -13
63 10 -69 7 -61 -16 9 -12
27 -22 41 -5 -20 10 -20 47
0 -77 7 15 68 -8 -3 -13
-54 -38 -15 -17 -8 -2 74 6
52 63 -12 -54 -26 16 127 73
12 -63 20 -14 35 -19 -3 -9
-52 -18 -10 1 -20 11 63 -17
46 55 -27 -36 -46 26 127 61
14 10 127 -8 -27 -86 70 4
-37 14 60 32 -57 48 40 -56
-44 0 -34 -40 -67 63 -52 0
-34 -61 64 -21 -125 -127 -32 -4
45 -99 22 56 -40 1 -118 56
35 15 -5 -91 6 -55 12 -103
9 -11 -65 2 -1 -23 -28 17
-12 -4 57 98 10 27 27 13
31 47 -30 61 -33 -127 -59 38
10 -21 30 22 -127 33 -50 17
41 -17 30 -19 -12 -9 23 34
00000000: 13e5 46bc 04fd 27d6 06fd 0f81 0021 dfce
00000010: 0fd6 23ca 3022 3aef 21e5 0bbc 05b8 d1fe
00000020: 7f3c 230d cde1 32e0 cc43 dbaf d748 e4e3
00000030: 090b f5fa 7ffc 2de7 05f2 fd04 fafd e906
00000040: 1ef7 f810 8f16 0582 3be5 cbe0 f7f5 aed0
00000050: 33c4 b425 cc28 de1d caf2 7f3e 372c aaa8
00000060: 7f1b ce1f 2112 fdf3 3f0a bb07 c3f0 09f4
00000070: 1bea 29fb ec0a ec2f 00b3 070f 44f8 fdf3
00000080: cada f1ef f8fe 4a06 343f f4ca e610 7f49
00000090: 0cc1 14f2 23ed fdf7 ccee f601 ec0b 3fef
000000a0: 2e37 e5dc d21a 7f3d 0e0a 7ff8 e5aa 4604
000000b0: db0e 3c20 c730 28c8 d400 ded8 bd3f cc00
000000c0: dec3 40eb 8381 e0fc 2d9d 1638 d801 8a38
000000d0: 230f fba5 06c9 0c99 09f5 bf02 ffe9 e411
000000e0: f4fc 3962 0a1b 1b0d 1f2f e23d df81 c526
000000f0: 0aeb 1e16 8121 ce11 29ef 1eed f4f7 1722

sequential_4/sequential_1/model1/block_8_project/Conv2D;StatefulPartitionedCall/sequential_4/sequential_1/model1/block_8_project/Conv2D i1 [24, 1, 1, 144]
8 7 19 -51 14 -1 8 21
-43 -22 -14 19 20 25 -5 10
15 -23 21 -13 29 42 24 -20
-2 21 -17 -10 1 -17 -72 -25
-21 -8 1 4 -12 7 45 -21
-11 -4 3 6 10 32 5 7
0 3 -14 -4 4 4 -24 -38
51 -11 22 -2 -2 24 -10 16
7 11 -15 -28 -9 -28 65 8
-35 4 8 -10 -7 -16 0 -9
-1 13 -17 19 -4 -4 -27 11
23 13 -5 15 15 1 -127 4
51 -6 -13 11 1 -11 8 7
-5 1 -23 25 6 -2 13 40
-23 -17 8 26 10 -5 2 -24
-31 4 1 -57 0 -16 1 12
24 -1 1 -2 -47 32 -8 1
32 -10 1 12 -4 -22 4 27
32 -78 38 -44 68 -63 -32 54
-22 -107 -13 -7 -25 -18 18 23
67 -100 -21 -22 53 -33 -1 14
-75 23 16 22 -27 -9 73 -39
73 -13 38 -73 38 22 -32 54
-4 -93 -5 -19 -25 -23 -50 -28
-77 -15 -14 -26 0 -71 -23 4
5 37 -99 -10 -5 -64 28 3
0 -45 -47 -13 2 -125 11 34
-16 41 16 -127 -28 -26 -13 23
-23 30 12 45 37 -68 28 -37
52 -57 -116 -78 -17 -15 58 52
-37 16 10 35 10 -110 17 14
-18 49 -43 29 41 -6 -36 36
00000000: 0807 13cd 0eff 0815 d5ea f213 1419 fb0a
00000010: 0fe9 15f3 1d2a 18ec fe15 eff6 01ef b8e7
00000020: ebf8 0104 f407 2deb f5fc 0306 0a20 0507
00000030: 0003 f2fc 0404 e8da 33f5 16fe fe18 f610
00000040: 070b f1e4 f7e4 4108 dd04 08f6 f9f0 00f7
00000050: ff0d ef13 fcfc e50b 170d fb0f 0f01 8104
00000060: 33fa f30b 01f5 0807 fb01 e919 06fe 0d28
00000070: e9ef 081a 0afb 02e8 e104 01c7 00f0 010c
00000080: 18ff 01fe d120 f801 20f6 010c fcea 041b
00000090: 20b2 26d4 44c1 e036 ea95 f3f9 e7ee 1217
000000a0: 439c ebea 35df ff0e b517 1016 e5f7 49d9
000000b0: 49f3 26b7 2616 e036 fca3 fbed e7e9 cee4
000000c0: b3f1 f2e6 00b9 e904 0525 9df6 fbc0 1c03
000000d0: 00d3 d1f3 0283 0b22 f029 1081 e4e6 f317
000000e0: e91e 0c2d 25bc 1cdb 34c7 8cb2 eff1 3a34
000000f0: db10 0a23 0a92 110e ee31 d51d 29fa dc24

sequential_4/sequential_1/model1/block_9_expand/Conv2D;StatefulPartitionedCall/sequential_4/sequential_1/model1/block_9_expand/Conv2D i1 [144, 1, 1, 24]
69 94 -95 127 -98 -12 -50 17
-27 -53 47 32 -5 -15 -49 24
-20 -98 -50 -71 68 3 0 93
-127 -5 64 -31 -8 15 16 2
-16 21 5 32 35 20 6 -4
-5 38 23 39 45 11 -5 -1
-126 4 73 -82 61 -12 96 -98
100 39 -34 26 40 127 43 -26
-10 111 12 37 5 -31 9 1
51 16 40 -1 97 99 22 5
21 74 90 57 127 -37 33 -17
-7 -8 99 -11 31 33 52 27
37 -11 -75 -71 -11 -28 42 -6
11 32 127 -83 -17 20 22 22
1 5 20 -77 25 -3 30 -43
25 -127 -15 -51 -5 -50 96 20
2 25 -74 100 48 25 38 -71
-37 -14 -11 -10 -11 31 -24 33
-7 -5 8 2 -14 -1 -18 -11
-10 -8 -6 -15 -13 -127 0 -10
-19 0 45 6 -10 -41 5 -18
-69 -38 -14 14 -14 28 -44 127
-9 -1 40 -9 7 -8 -27 34
21 13 -12 9 9 42 19 -42
20 83 -14 9 -65 -26 124 -7
33 -126 0 -23 127 -28 11 6
-10 -32 -10 -61 54 -42 26 -53
-127 -16 -85 -19 -83 -18 -10 -9
-11 -58 29 -28 -93 0 -27 -6
31 37 -28 -29 -10 9 -18 -57
-10 -49 18 3 32 1 -15 -6
-56 -26 -27 3 -20 13 56 11
00000000: 455e a17f 9ef4 ce11 e5cb 2f20 fbf1 cf18
00000010: ec9e ceb9 4403 005d 81fb 40e1 f80f 1002
00000020: f015 0520 2314 06fc fb26 1727 2d0b fbff
00000030: 8204 49ae 3df4 609e 6427 de1a 287f 2be6
00000040: f66f 0c25 05e1 0901 3310 28ff 6163 1605
00000050: 154a 5a39 7fdb 21ef f9f8 63f5 1f21 341b
00000060: 25f5 b5b9 f5e4 2afa 0b20 7fad ef14 1616
00000070: 0105 14b3 19fd 1ed5 1981 f1cd fbce 6014
00000080: 0219 b664 3019 26b9 dbf2 f5f6 f51f e821
00000090: f9fb 0802 f2ff eef5 f6f8 faf1 f381 00f6
000000a0: ed00 2d06 f6d7 05ee bbda f20e f21c d47f
000000b0: f7ff 28f7 07f8 e522 150d f409 092a 13d6
000000c0: 1453 f209 bfe6 7cf9 2182 00e9 7fe4 0b06
000000d0: f6e0 f6c3 36d6 1acb 81f0 abed adee f6f7
000000e0: f5c6 1de4 a300 e5fa 1f25 e4e3 f609 eec7
000000f0: f6cf 1203 2001 f1fa c8e6 e503 ec0d 380b

sequential_4/sequential_1/model1/block_9_project/Conv2D;StatefulPartitionedCall/sequential_4/sequential_1/model1/block_9_project/Conv2D i1 [24, 1, 1, 144]
39 -20 5 -1 -11 10 7 -30
-43 39 6 -1 10 -25 45 6
-12 17 61 18 19 2 -6 5
-17 49 8 -51 -20 1 -39 8
24 -3 -10 -28 32 -5 50 38
-20 -12 -49 -24 -4 -20 -1 -2
13 12 -12 -25 -21 -4 -11 25
-12 -18 2 -21 9 32 -36 -19
44 36 -6 -21 22 -31 69 1
-21 28 -7 -10 55 2 -10 -28
7 18 -18 17 21 -2 -2 -80
17 -4 -8 3 -4 4 66 3
40 9 -14 12 9 1 -10 16
0 4 -6 2 45 32 -3 1
9 -127 24 -49 34 -4 13 -3
41 -11 -9 76 14 23 -43 17
6 25 4 29 5 42 38 13
1 3 -15 -13 -55 23 18 -4
-30 74 -9 -21 -59 19 21 -43
-40 -74 -52 -21 4 -68 71 23
-103 34 39 32 -3 -8 -52 12
-46 22 35 51 -93 -42 -71 22
40 2 -41 -63 -14 -29 -7 -22
-6 -74 -27 38 25 -13 39 -104
27 -53 -25 -76 13 -47 3 -23
-31 -32 7 41 4 8 -12 -68
127 67 -34 -14 44 -36 19 -114
3 115 4 -43 -2 25 65 -38
20 19 -2 -6 -63 25 -55 -120
69 50 -15 61 77 30 -24 71
-29 28 -59 43 55 -66 -62 63
-44 -22 -48 -66 57 -6 -5 -45
00000000: 27ec 05ff f50a 07e2 d527 06ff 0ae7 2d06
00000010: f411 3d12 1302 fa05 ef31 08cd ec01 d908
00000020: 18fd f6e4 20fb 3226 ecf4 cfe8 fcec fffe
00000030: 0d0c f4e7 ebfc f519 f4ee 02eb 0920 dced
00000040: 2c24 faeb 16e1 4501 eb1c f9f6 3702 f6e4
00000050: 0712 ee11 15fe feb0 11fc f803 fc04 4203
00000060: 2809 f20c 0901 f610 0004 fa02 2d20 fd01
00000070: 0981 18cf 22fc 0dfd 29f5 f74c 0e17 d511
00000080: 0619 041d 052a 260d 0103 f1f3 c917 12fc
00000090: e24a f7eb c513 15d5 d8b6 cceb 04bc 4717
000000a0: 9922 2720 fdf8 cc0c d216 2333 a3d6 b916
000000b0: 2802 d7c1 f2e3 f9ea fab6 e526 19f3 2798
000000c0: 1bcb e7b4 0dd1 03e9 e1e0 0729 0408 f4bc
000000d0: 7f43 def2 2cdc 138e 0373 04d5 fe19 41da
000000e0: 1413 fefa c119 c988 4532 f13d 4d1e e847
000000f0: e31c c52b 37be c23f d4ea d0be 39fa fbd3

sequential_4/sequential_1/model1/block_10_expand/Conv2D;StatefulPartitionedCall/sequential_4/sequential_1/model1/block_10_expand/Conv2D i1 [144, 1, 1, 24]
18 35 -5 38 9 24 19 -127
-61 45 48 -21 3 36 -28 19
50 -32 -80 8 28 70 -40 55
53 -28 127 11 -3 16 -9 14
-30 7 14 -4 43 12 -7 23
18 -31 -61 -29 -24 22 -11 11
118 127 29 11 -82 22 75 -37
-10 -71 -57 8 -126 -100 -26 -8
31 -29 -13 -43 -50 -105 28 39
49 -4 -26 6 32 -127 29 54
48 48 83 43 105 -95 31 45
58 29 -13 -3 -29 78 -28 75
20 30 5 -104 -39 -11 -9 10
27 46 127 6 8 16 56 -1
-39 85 -51 -103 -70 -3 -5 -37
44 -23 -5 -46 -92 33 112 -7
32 40 55 -22 -127 -14 -72 -79
-92 -125 18 66 -33 -3 -18 -44
-127 24 116 -19 43 -13 -9 -3
90 -1 -22 -11 14 -16 37 -16
-15 25 -48 45 23 -1 -4 6
10 -9 -11 7 -1 10 -36 11
5 -19 25 55 4 9 -48 -127
73 63 -7 16 -25 -17 -43 15
59 -47 18 49 69 -20 -7 9
-94 -16 24 10 -43 0 66 -9
43 61 -127 -82 -33 51 82 81
15 -36 0 -36 -39 -25 22 -13
20 15 -6 -38 15 0 -13 -26
18 -7 -7 53 -14 27 127 10
-1 1 -8 18 -102 -4 -45 -4
-9 13 6 -13 17 12 26 -20
00000000: 1223 fb26 0918 1381 c32d 30eb 0324 e413
00000010: 32e0 b008 1c46 d837 35e4 7f0b fd10 f70e
00000020: e207 0efc 2b0c f917 12e1 c3e3 e816 f50b
00000030: 767f 1d0b ae16 4bdb f6b9 c708 829c e6f8
00000040: 1fe3 f3d5 ce97 1c27 31fc e606 2081 1d36
00000050: 3030 532b 69a1 1f2d 3a1d f3fd e34e e44b
00000060: 141e 0598 d9f5 f70a 1b2e 7f06 0810 38ff
00000070: d955 cd99 bafd fbdb 2ce9 fbd2 a421 70f9
00000080: 2028 37ea 81f2 b8b1 a483 1242 dffd eed4
00000090: 8118 74ed 2bf3 f7fd 5aff eaf5 0ef0 25f0
000000a0: f119 d02d 17ff fc06 0af7 f507 ff0a dc0b
000000b0: 05ed 1937 0409 d081 493f f910 e7ef d50f
000000c0: 3bd1 1231 45ec f909 a2f0 180a d500 42f7
000000d0: 2b3d 81ae df33 5251 0fdc 00dc d9e7 16f3
000000e0: 140f fada 0f00 f3e6 12f9 f935 f21b 7f0a
000000f0: ff01 f812 9afc d3fc f70d 06f3 110c 1aec

sequential_4/sequential_1/model1/block_10_project/Conv2D;StatefulPartitionedCall/sequential_4/sequential_1/model1/block_10_project/Conv2D i1 [32, 1, 1, 144]
-5 22 48 14 -28 -19 -40 23
-88 18 54 51 -20 8 6 21
-6 -25 -51 -2 -60 -9 -1 -38
5 -58 14 -16 22 14 12 40
-8 -18 8 11 16 -54 -17 7
78 -14 6 -1 36 1 18 -2
28 31 4 7 55 -35 -1 51
-42 -10 68 -2 22 -36 -5 77
45 -7 46 -17 77 46 -2 77
-1 94 12 -6 -40 -23 12 7
-26 -68 42 -3 -38 -55 -12 39
-11 15 16 -10 3 12 40 -7
-10 6 53 12 32 -17 34 -16
23 -34 50 -27 -23 -38 -10 -11
27 -55 9 4 16 11 -127 57
32 -15 -6 1 -31 21 37 -28
5 2 7 -19 17 -17 14 68
-12 11 -18 -43 19 53 -64 14
50 -39 -69 11 -124 1 -95 52
0 -21 -98 51 54 89 3 42
-70 23 -10 14 -28 113 52 17
-27 121 10 9 -30 -29 56 -92
6 46 -26 -36 -8 -3 -52 -3
1 -15 52 63 25 -14 -93 38
-44 22 -54 24 43 35 -38 -71
-12 80 59 18 -95 2 3 -42
8 22 -37 -8 -2 -36 20 72
46 -21 -40 19 -5 47 -4 -16
-3 51 -46 52 -34 -72 26 17
-48 63 -51 -11 2 13 -120 53
-29 -44 15 55 -6 -34 34 18
68 -109 44 -15 -15 -32 -18 12
00000000: fb16 300e e4ed d817 a812 3633 ec08 0615
00000010: fae7 cdfe c4f7 ffda 05c6 0ef0 160e 0c28
00000020: f8ee 080b 10ca ef07 4ef2 06ff 2401 12fe
00000030: 1c1f 0407 37dd ff33 d6f6 44fe 16dc fb4d
00000040: 2df9 2eef 4d2e fe4d ff5e 0cfa d8e9 0c07
00000050: e6bc 2afd dac9 f427 f50f 10f6 030c 28f9
00000060: f606 350c 20ef 22f0 17de 32e5 e9da f6f5
00000070: 1bc9 0904 100b 8139 20f1 fa01 e115 25e4
00000080: 0502 07ed 11ef 0e44 f40b eed5 1335 c00e
00000090: 32d9 bb0b 8401 a134 00eb 9e33 3659 032a
000000a0: ba17 f60e e471 3411 e579 0a09 e2e3 38a4
000000b0: 062e e6dc f8fd ccfd 01f1 343f 19f2 a326
000000c0: d416 ca18 2b23 dab9 f450 3b12 a102 03d6
000000d0: 0816 dbf8 fedc 1448 2eeb d813 fb2f fcf0
000000e0: fd33 d234 deb8 1a11 d03f cdf5 020d 8835
000000f0: e3d4 0f37 fade 2212 4493 2cf1 f1e0 ee0c

sequential_4/sequential_1/model1/block_11_expand/Conv2D;StatefulPartitionedCall/sequential_4/sequential_1/model1/block_11_expand/Conv2D i1 [192, 1, 1, 32]
46 30 84 -14 42 -13 -63 -69
-86 -92 65 -11 16 -28 -1 -36
127 -78 -112 17 -27 40 -44 -6
91 -56 -78 59 78 -21 68 71
-15 -3 -28 32 -6 -14 36 36
41 39 -51 -39 9 21 46 32
-84 127 54 -31 38 -30 5 -22
-101 15 90 -32 -48 -7 -33 -53
-21 25 43 -48 10 -49 25 127
81 -54 108 -22 -75 84 20 9
41 71 34 -85 -6 -72 4 98
62 -113 -25 16 28 -13 91 -97
-69 32 -4 -47 -34 -9 16 35
85 -73 -24 127 -92 -60 -31 -40
115 -2 121 3 2 -57 7 41
-21 76 -31 -57 -35 -58 -2 -51
-23 -79 -65 24 -6 51 -30 77
1 54 3 -35 -85 -35 -35 45
50 -32 -6 127 7 -78 3 -30
11 12 32 46 -1 -65 25 19
-72 3 77 61 63 10 -26 34
8 3 6 -85 -36 -97 127 8
-63 -25 -37 -9 -12 -45 47 99
-4 -9 13 27 62 -10 -43 -38
70 -23 -43 -5 -9 -23 -28 -61
-57 -17 11 -22 -13 18 -42 114
-61 54 -40 4 -25 -35 -44 88
43 127 -29 9 -12 -16 -96 39
3 1 -27 31 -4 -7 -49 127
51 10 9 -13 7 -17 14 -31
29 -21 -21 -26 -38 -6 -19 -40
83 -105 -14 2 13 41 86 -16
00000000: 2e1e 54f2 2af3 c1bb aaa4 41f5 10e4 ffdc
00000010: 7fb2 9011 e528 d4fa 5bc8 b23b 4eeb 4447
00000020: f1fd e420 faf2 2424 2927 cdd9 0915 2e20
00000030: ac7f 36e1 26e2 05ea 9b0f 5ae0 d0f9 dfcb
00000040: eb19 2bd0 0acf 197f 51ca 6cea b554 1409
00000050: 2947 22ab fab8 0462 3e8f e710 1cf3 5b9f
00000060: bb20 fcd1 def7 1023 55b7 e87f a4c4 e1d8
00000070: 73fe 7903 02c7 0729 eb4c e1c7 ddc6 fecd
00000080: e9b1 bf18 fa33 e24d 0136 03dd abdd dd2d
00000090: 32e0 fa7f 07b2 03e2 0b0c 202e ffbf 1913
000000a0: b803 4d3d 3f0a e622 0803 06ab dc9f 7f08
000000b0: c1e7 dbf7 f4d3 2f63 fcf7 0d1b 3ef6 d5da
000000c0: 46e9 d5fb f7e9 e4c3 c7ef 0bea f312 d672
000000d0: c336 d804 e7dd d458 2b7f e309 f4f0 a027
000000e0: 0301 e51f fcf9 cf7f 330a 09f3 07ef 0ee1
000000f0: 1deb ebe6 dafa edd8 5397 f202 0d29 56f0

sequential_4/sequential_1/model1/block_11_project/Conv2D;StatefulPartitionedCall/sequential_4/sequential_1/model1/block_11_project/Conv2D i1 [32, 1, 1, 192]
22 32 -35 14 -1 37 -43 18
-13 21 9 16 -15 25 40 60
52 44 25 -56 32 -20 44 -34
-26 -75 -37 68 4 -43 2 -46
2 -21 20 -13 9 -6 12 78
44 -12 -35 -13 21 -10 7 36
-41 -32 -48 27 -20 54 -28 38
42 -48 -6 -83 -49 -37 -18 26
-52 34 -11 -44 -79 73 -38 77
-14 -31 -10 -16 4 41 55 20
32 127 42 68 -2 -69 73 9
12 -50 44 -75 6 14 57 15
-10 -32 32 10 -10 -8 -10 -11
-28 70 11 7 21 29 -29 20
35 -29 20 6 -78 35 -24 63
-90 20 -3 73 -59 -32 -22 -22
-16 -49 32 10 -56 -8 -32 42
4 53 -12 31 29 78 -10 -31
-74 -15 7 96 -40 -76 -12 2
1 -62 -24 62 14 76 46 8
30 -13 27 3 -41 31 41 46
-8 -24 13 -4 5 -4 76 1
61 -17 -49 44 -15 -19 109 15
-59 -12 31 73 10 34 30 14
-20 -2 -26 40 28 9 -21 -6
22 -66 25 4 49 3 22 -77
-63 9 27 -106 11 -2 -4 32
-51 -51 -40 -8 -44 121 -40 53
29 -5 24 -21 8 55 -5 -1
-13 30 -23 11 -54 -22 -21 -14
33 -22 11 -46 41 23 -3 -99
42 -10 13 47 4 2 -16 13
00000000: 1620 dd0e ff25 d512 f315 0910 f119 283c
00000010: 342c 19c8 20ec 2cde e6b5 db44 04d5 02d2
00000020: 02eb 14f3 09fa 0c4e 2cf4 ddf3 15f6 0724
00000030: d7e0 d01b ec36 e426 2ad0 faad cfdb ee1a
00000040: cc22 f5d4 b149 da4d f2e1 f6f0 0429 3714
00000050: 207f 2a44 febb 4909 0cce 2cb5 060e 390f
00000060: f6e0 200a f6f8 f6f5 e446 0b07 151d e314
00000070: 23e3 1406 b223 e83f a614 fd49 c5e0 eaea
00000080: f0cf 200a c8f8 e02a 0435 f41f 1d4e f6e1
00000090: b6f1 0760 d8b4 f402 01c2 e83e 0e4c 2e08
000000a0: 1ef3 1b03 d71f 292e f8e8 0dfc 05fc 4c01
000000b0: 3def cf2c f1ed 6d0f c5f4 1f49 0a22 1e0e
000000c0: ecfe e628 1c09 ebfa 16be 1904 3103 16b3
000000d0: c109 1b96 0bfe fc20 cdcd d8f8 d479 d835
000000e0: 1dfb 18eb 0837 fbff f31e e90b caea ebf2
000000f0: 21ea 0bd2 2917 fd9d 2af6 0d2f 0402 f00d

sequential_4/sequential_1/model1/block_12_expand/Conv2D;StatefulPartitionedCall/sequential_4/sequential_1/model1/block_12_expand/Conv2D i1 [192, 1, 1, 32]
9 4 109 2 -73 -27 0 42
73 34 -17 -28 3 -1 30 -21
80 -25 41 22 105 43 -6 -21
-19 20 32 -127 -24 22 -1 -42
51 8 46 -87 -77 -59 73 8
88 0 39 -88 104 66 42 -73
14 -20 5 6 72 127 35 -17
-31 -26 -17 -97 -31 10 35 -16
83 49 22 -76 120 67 -41 71
-127 36 64 58 14 0 50 -15
87 65 44 -9 83 110 9 -73
-80 -10 47 -94 -85 -11 -1 -13
25 -18 41 -31 43 -26 -17 77
72 -124 10 88 -71 -1 -65 14
-60 47 71 -127 -54 78 -25 -32
-18 60 -90 -86 9 1 -13 -61
10 13 -12 13 38 10 -7 -54
-51 16 -3 -17 39 20 11 19
3 -4 -19 -11 127 -17 -23 2
14 10 63 90 3 -15 -39 38
-13 -68 14 6 32 11 85 -6
30 -60 -34 -43 65 66 -23 113
-40 91 73 33 24 -26 10 32
6 121 58 -26 -55 -30 -127 2
-13 -65 -96 17 -127 -24 21 9
-14 57 -23 -49 78 64 62 -1
-120 76 18 56 38 -61 39 -21
-116 126 -56 -67 5 43 -7 41
-56 24 17 41 127 -30 -13 -9
49 22 -24 27 -18 -6 -44 16
-79 23 18 -15 16 25 -43 -24
102 20 -13 -40 -14 4 12 -22
00000000: 0904 6d02 b7e5 002a 4922 efe4 03ff 1eeb
00000010: 50e7 2916 692b faeb ed14 2081 e816 ffd6
00000020: 3308 2ea9 b3c5 4908 5800 27a8 6842 2ab7
00000030: 0eec 0506 487f 23ef e1e6 ef9f e10a 23f0
00000040: 5331 16b4 7843 d747 8124 403a 0e00 32f1
00000050: 5741 2cf7 536e 09b7 b0f6 2fa2 abf5 fff3
00000060: 19ee 29e1 2be6 ef4d 4884 0a58 b9ff bf0e
00000070: c42f 4781 ca4e e7e0 ee3c a6aa 0901 f3c3
00000080: 0a0d f40d 260a f9ca cd10 fdef 2714 0b13
00000090: 03fc edf5 7fef e902 0e0a 3f5a 03f1 d926
000000a0: f3bc 0e06 200b 55fa 1ec4 ded5 4142 e971
000000b0: d85b 4921 18e6 0a20 0679 3ae6 c9e2 8102
000000c0: f3bf a011 81e8 1509 f239 e9cf 4e40 3eff
000000d0: 884c 1238 26c3 27eb 8c7e c8bd 052b f929
000000e0: c818 1129 7fe2 f3f7 3116 e81b eefa d410
000000f0: b117 12f1 1019 d5e8 6614 f3d8 f204 0cea

sequential_4/sequential_1/model1/block_12_project/Conv2D;StatefulPartitionedCall/sequential_4/sequential_1/model1/block_12_project/Conv2D i1 [32, 1, 1, 192]
35 -76 -54 2 -19 6 -27 -46
0 -21 -13 -27 -39 33 -37 -12
-25 4 -9 29 -4 -3 -49 3
-44 8 -119 -36 -71 -93 9 67
-57 -22 4 17 59 13 -115 -33
15 54 -31 52 -13 25 85 -99
23 -73 -6 -23 44 -8 -30 -20
-54 8 -12 -52 -31 38 -10 4
-49 2 -50 4 12 -11 -33 -18
14 1 7 42 66 -54 -26 12
-16 -1 -11 10 37 -54 3 -5
-15 -26 -5 -36 15 -50 28 -58
72 32 72 -21 -41 45 -79 50
13 -55 -40 -8 -18 42 0 -24
-22 -93 60 -8 39 29 -29 -26
-1 47 -62 -127 -26 -78 -54 10
-101 -28 5 -4 -25 28 -27 -34
-28 30 -16 -1 109 86 -58 75
-19 48 23 -52 -47 16 -41 20
37 21 13 13 -5 45 6 39
-47 -11 -16 10 -11 -6 -1 53
8 -5 -16 -31 -15 -6 33 0
-15 4 0 -22 52 31 60 34
50 46 24 -1 -13 18 -78 25
-7 1 -15 17 12 -16 0 7
-13 -39 26 -75 -14 3 -5 3
-55 -14 -15 19 -7 -29 100 -32
32 12 -21 57 2 -5 28 16
-36 30 18 14 -13 11 -26 -38
9 0 21 -16 45 -20 28 -11
-4 6 -2 71 -51 -12 -56 26
9 42 -4 9 -15 -22 -64 24
00000000: 23b4 ca02 ed06 e5d2 00eb f3e5 d921 dbf4
00000010: e704 f71d fcfd cf03 d408 89dc b9a3 0943
00000020: c7ea 0411 3b0d 8ddf 0f36 e134 f319 559d
00000030: 17b7 fae9 2cf8 e2ec ca08 f4cc e126 f604
00000040: cf02 ce04 0cf5 dfee 0e01 072a 42ca e60c
00000050: f0ff f50a 25ca 03fb f1e6 fbdc 0fce 1cc6
00000060: 4820 48eb d72d b132 0dc9 d8f8 ee2a 00e8
00000070: eaa3 3cf8 271d e3e6 ff2f c281 e6b2 ca0a
00000080: 9be4 05fc e71c e5de e41e f0ff 6d56 c64b
00000090: ed30 17cc d110 d714 2515 0d0d fb2d 0627
000000a0: d1f5 f00a f5fa ff35 08fb f0e1 f1fa 2100
000000b0: f104 00ea 341f 3c22 322e 18ff f312 b219
000000c0: f901 f111 0cf0 0007 f3d9 1ab5 f203 fb03
000000d0: c9f2 f113 f9e3 64e0 200c eb39 02fb 1c10
000000e0: dc1e 120e f30b e6da 0900 15f0 2dec 1cf5
000000f0: fc06 fe47 cdf4 c81a 092a fc09 f1ea c018
